model/model_training/model.pt (torch, 74889 bytes, 56 tensors)

weight f4 [8, 3, 3, 3]
00000000: c76b 4fbd 50d5 a33d 2237 09be c4a5 cbbd
00000010: 5a9d 123c 5c77 d3bd 8301 243e fa5c 203d
00000020: 68cf 033e 8ed4 1a3d 8b85 87bd 9eb4 4b3e
00000030: 02c2 4f3e b34c fd3d b1d7 d43d 295f 703e
00000040: c9df 0d3c cdfe 403d 5ffc f6bc 25c2 433d
00000050: e1cc 3b3d 6d76 903e 6d68 073e debc 343d
00000060: e37b 73bc 7d92 17bc 429c 513e 5354 653c
00000070: d0c7 00bd 26f4 b73d cecc 543e 1479 d2bc
00000080: 0934 06be 8759 cb3d 0278 313d f26a 853b
00000090: 9e2e f0bd 6736 3dbc 347b 573d bb1c 513e
000000a0: 0c9a 1b3e 170a af3d 7d82 8a3d 5c2a e1bd
000000b0: c383 11bd cc9f 8339 c998 0c3e 4540 473e
000000c0: 71f3 283e dca2 aebd c2c7 af3d 4e35 373e
000000d0: 3738 213e 74f0 263e 5fb4 f2bd e2fb 12be
000000e0: ef88 94bc 2776 b9bd a35d b3bd a3d4 943b
000000f0: 67c5 b93d 9c55 8e3d 1111 f03d c540 bd3d
00000100: 175d 173e e2ad 32bd fe17 cfbd 0b0c aa3d
00000110: 1da3 e73c cf40 223e 4ced 0a3e 927e 193d
00000120: feac f03d e527 8f3b ca3a bfbd 49a5 3a3e
00000130: 04ff ae3d 9b99 c6bc 6ca8 443e d7ee 353e
00000140: 6628 303e 7495 373e 192a 68bd 39b4 a1bd
00000150: 12eb 933d f6a8 383e 1cd1 d8bb a9aa e13d
00000160: bc85 f93d 7a04 30bd 75df 733d 83f8 5f3e
00000170: 1130 163c 4b8d 453e 86e3 3c3e 15dd 12bd
00000180: cddf 053e 4085 febd a4ce 263e e50c 033e
00000190: 1454 a63d 714a 68bd 14d7 df3d cd96 10bd
000001a0: 3c4c 8e3e bc43 08bd 60e4 803b 5b96 0cbc
000001b0: d5e3 6e3d de86 48bd fedc a83d 7534 b83d
000001c0: b1f0 82bd 40e5 1fbe 59e0 4c3e 508b 393e
000001d0: 210a 17be fab9 31be f2ef e8bd 1d55 46be
000001e0: e026 14be 0853 c33d 014a a93d c9de 22be
000001f0: 4405 b43c f3c7 2ebe a92e 08be 4151 083d
00000200: c854 25be 5511 72be 0751 87bc 88a5 aabd
00000210: 4107 19be 5ae6 29be e1b5 d3bd 71e2 0f3e
00000220: b1ab 8f3c fd34 c73d c6eb dfbd 9347 c93d
00000230: 8f96 e8bc 5e21 f5ba dcc1 59bd c9c4 2fbe
00000240: b753 85bd 6ce3 61be 0465 e2bd 531f 1abe
00000250: 0635 5cbe a8b4 3a3d 1916 973d 89e0 13be
00000260: d145 0ebe 25ae 64be eb47 b23d 9bca 1e3d
00000270: 1434 8dbe e647 05bd 6165 dcbc 7939 d53d
00000280: 8388 6fbd 1b9e 10bc 53f4 26be 5005 01be
00000290: 2d38 a6bd 1a1d f73d 804b d03a 215b 103e
000002a0: 51fd 09bd de13 1ebe 2b57 a8bd 3b3d e4bd
000002b0: 946c bb3c 16f1 fe3d 88b8 573d 9de0 19be
000002c0: a806 2e3c 52e0 993d 609e aa3c 7e8e 28be
000002d0: 2699 cabd fe95 113d 713b a3bc e843 66be
000002e0: 750c cdbd a47f 79be 1e33 18bd 3ee0 11bc
000002f0: 9e76 f4bc d739 a3bd 129f 53be 2dd8 95bd
00000300: d4d3 2a3e 433c d1bd fb28 143e c38f 643c
00000310: f718 6cbd 58c2 7f3d 6a72 d5bb 752e 063e
00000320: 5a17 2ebe 8241 dbbd a8b7 0ebe 1e2d fe3d
00000330: e605 c83d 88cf 0fbe 523c 873d b9e6 49be
00000340: 3199 33be acc2 90be efdf 6bbe 5abc 82bd
00000350: 490d a4bd a1b5 f8bd 004a c6bd 9a6b 0a3e
-0.050639894 0.079996705 -0.13399938 -0.09943727 0.008948648 -0.103255 0.16016202 0.03915117
0.12872088 0.037800364 -0.06617268 0.19893119 0.20288852 0.12368145 0.10392702 0.234738
0.008659312 0.047117997 -0.030149637 0.047792573 0.045849685 0.28215352 0.13223429 0.04412543
-0.01486108 -0.009251234 0.20469764 0.013997155 -0.031440556 0.089821145 0.20781252 -0.0256925
-0.13105787 0.09929185 0.04332734 0.0040715868 -0.117276415 -0.011548615 0.05260773 0.20421116
0.15195483 0.08546846 0.0676317 -0.109944075 -0.03552605 0.00025105325 0.13730158 0.1945811
0.16499116 -0.08527157 0.08583023 0.17891428 0.157441 0.16302663 -0.11850809 -0.14353898
-0.018131701 -0.09055739 -0.08758094 0.00454195 0.09070855 0.069499224 0.11722005 0.092408694
0.14781605 -0.04362286 -0.10111998 0.08303078 0.02827602 0.15845035 0.13567084 0.037474222
0.11751746 0.0043687695 -0.09337385 0.18227114 0.08544734 -0.024243167 0.19204873 0.17766891
0.17202911 0.17928106 -0.056680772 -0.07895703 0.072225705 0.18033203 -0.0066167247 0.11018879
0.12183711 -0.04297302 0.059539277 0.21872143 0.009166733 0.1929218 0.18446168 -0.03585537
0.13073654 -0.12427759 0.16289765 0.12797888 0.081215054 -0.056711618 0.10929695 -0.035300065
0.27792537 -0.03326772 0.0039334744 -0.008580769 0.058322746 -0.048956744 0.08245276 0.089943804
-0.063935645 -0.15614796 0.20007457 0.1811955 -0.14749958 -0.173561 -0.11373891 -0.19368406
-0.14467955 0.09537321 0.08266068 -0.15905298 0.021975167 -0.17068462 -0.1329905 0.033280615
-0.16145623 -0.23639424 -0.016518129 -0.08332354 -0.14944173 -0.16591778 -0.10337425 0.14051224
0.017537924 0.097269036 -0.10933642 0.09828105 -0.028392104 -0.0018701961 -0.053163394 -0.17164911
-0.06510108 -0.22059411 -0.110544235 -0.15051012 -0.21504602 0.045582443 0.07377262 -0.14441122
-0.1389382 -0.22332056 0.087051235 0.03876744 -0.27578795 -0.03253927 -0.02690381 0.10411353
-0.058479797 -0.008826758 -0.1630414 -0.12599683 -0.081161834 0.120660976 0.0015891641 0.14097263
-0.033688847 -0.15437266 -0.08219751 -0.11144491 0.022878923 0.12448327 0.052666217 -0.1502709
0.010621704 0.07513489 0.020827472 -0.16460606 -0.09892492 0.035543434 -0.019925805 -0.22486842
-0.100121416 -0.24365097 -0.037158124 -0.008903561 -0.029841717 -0.079700164 -0.2066615 -0.07316623
0.16682369 -0.10216572 0.14468758 0.013950291 -0.057640996 0.0624412 -0.0065138834 0.1310366
-0.17001095 -0.10705854 -0.13937247 0.12410949 0.0976675 -0.1404401 0.06603302 -0.1971692
-0.17538907 -0.28273523 -0.23034643 -0.063835815 -0.080103464 -0.12144018 -0.09682083 0.13517609

bias f4 [8]
00000000: 71a8 553e 5f40 ca3d 660d ad3d c5ae 983e
00000010: eda4 b4bd 5993 5ebe b45e 3dbe 0ec5 5cbe
0.20865037 0.09875559 0.08449821 0.2982084 -0.088205196 -0.21735896 -0.18493158 -0.21559545

weight f4 [8]
00000000: b1c1 853f 8f42 8d3f 0374 853f a048 8b3f
00000010: 8ab4 813f d8b9 743f dd70 5c3f 177f 633f
1.0449735 1.1035937 1.0426029 1.0881538 1.0133221 0.95596075 0.86109716 0.888658

bias f4 [8]
00000000: 0ae3 323c 869e bcbc b117 543d ba4e 7e3c
00000010: 0b6f 7ebd 97cd 303d 6885 4b3d 4363 c23c
0.010918388 -0.023024809 0.051780406 0.0155217 -0.062117618 0.043164816 0.049687773 0.023728972

running_mean f4 [8]
00000000: 850a 8a3f aef7 7b3f 895f 4e3f b241 8f3f
00000010: 1f9f 883e dc9c 633e c7dc 483e 3f6a 4e3e
1.078446 0.98424804 0.80614525 1.1191924 0.266839 0.22227806 0.1961547 0.20157717

running_var f4 [8]
00000000: abeb 383f be3a 213f 6129 c83e 8506 4d3f
00000010: 3487 b83e 199b 833e 993a 523e 1209 7c3e
0.722346 0.6298026 0.3909407 0.80088073 0.36040652 0.25704268 0.20530166 0.24612835

weight f4 [20, 8, 3, 3]
00000000: 14fa 483d b96c 6ebc 8b38 3f3e f2fa 873d
00000010: f227 6d3d d8ec dd3d 01de 8d3d 6926 7a3d
00000020: e015 adbd a23f 0a3e f07d 313c 49b8 453e
00000030: 92f6 663d 7809 e43d 7e6e 1eba 770c abbc
00000040: c0f8 df3d 5911 36bc 7fb0 c53d 3776 da3d
00000050: add8 8fbc d7b1 833d df1a 22bc 6764 d83d
00000060: d7c1 903d 2a34 79bd 187f 3f3c 4cff cdba
00000070: 777c eb3d c8c0 72bd abc3 283e 9031 04bd
00000080: 24fd 8a3c 5f4d 21bc 0956 dd3d 0e26 09bc
00000090: 2037 adbd 1d8e 733d a6b9 0cbd 685b 1e3b
000000a0: 0570 153d e8ff 6f3b 3d9a 04be fdd6 8fbd
000000b0: e19b cf3b 92fe 1cbe 5e21 34be 89f3 a53c
000000c0: cfb1 aebc e9ed 6ebd 5e43 35be 46b5 b0bc
000000d0: c341 b5bd b768 993d 311b f0bd e777 05bd
000000e0: a2a6 1c3d 36a9 2c3d d8be abbd c0b3 e2bd
000000f0: d077 6137 9e9c 05be a04e a9bb cefb 7f3d
00000100: 7f02 3ebc 70cb fdbd 96b9 a83d ebb9 ccbd
00000110: cc4a dbbd 7d3b cdbd 6873 b0bd 8382 d33c
00000120: 5e3b 4cbe a312 40bd 91db 20be 1019 3dbd
00000130: 34e9 f2bd 467c 243d c983 42be 8727 28be
00000140: 935d c4ba 5881 09be 00f7 1a3c 7e83 1bbe
00000150: 346c debd f0e2 f9bd 1fae cc3c 1304 48bd
00000160: b612 cfbd 6fb4 39be ca51 c0bd adad cf3c
00000170: 6bbd 08bc f9d8 63be e042 81bd 7e45 f7bc
00000180: 4ba3 c3bd 3f67 6ebd ca4d 76bd 7398 b5bd
00000190: 8763 05be 37d0 4e3b b0aa ecbd 88ca 9abc
000001a0: e2bc 4cbc fa63 f2bc 3685 1cbe 5d20 1ebe
000001b0: e4f3 8a3c ec7f 6ebd 25b5 9abd 114b 23be
000001c0: ee63 e9bd 8a14 60bd baa3 00bd 9d80 08be
000001d0: 26f8 23be c26b 843c ef42 f7bd af41 18be
000001e0: 2502 0fbe 55ed 703d 3f1e 49be 0887 a03d
000001f0: b224 03be ed60 9dbd ab0d 533d 684b 25bd
00000200: 894b 113a da8f ccbd 63ad 23be 1937 29b9
00000210: 81be c6bd 36e6 dd3c 40e3 f3bd 9e4d 1bbe
00000220: 8235 3ebe 7562 6dbd 8b56 d63c 3188 26be
00000230: 3ace ac3c ebf6 0bbd b909 afbc 2efa cdbd
00000240: 2cd3 23be 0216 0cbd 8d03 25bd 6a53 e5bd
00000250: 29d1 a43d 4a99 f9bc b0df 8d3d b1e8 69bd
00000260: f5c5 7dbc 3265 b7bc 2d2a 4b3d d515 43bc
00000270: c88b 973d b467 a93b 693b cebc b267 debd
00000280: 61f2 8a3c 702a 51bd 9fcf 07bd 2c9f f3bd
00000290: b6b8 9dbd 8762 acbd 15a1 e7bd f170 c93c
000002a0: 25ce e33c b3d4 0cbd 05f8 ecbc 4487 34bd
000002b0: d7bb 00be cd96 683c a9cc 85bd a106 b5bd
000002c0: 21db 1fbd 9714 1e3d 1b33 bfbc 0ae0 853d
000002d0: b75a 9c3b f82b 023d 00d1 84bc 842f 233e
000002e0: 4928 093c 42d4 013e 6eba 9a3d b470 e03d
000002f0: 5fe9 2cbd 357a 3ebc 12cf 673c 50fd 013e
00000300: 9d67 e53d 1c0d fe3d a134 163e 3217 e93d
00000310: 52dd 72bd 12b4 a6bc d580 5d3d bd3b 0f3d
00000320: f632 a03c 9fa6 cdbc 4d03 fa3c a319 b5bd
00000330: 0dbf 013e f635 87bd a762 87bd c05f 90bc
00000340: b631 cc3d c54c 6b3d deac 07bd 074a fdbb
00000350: 469b da3c c3c2 b23b ea78 df3d f1a2 f43d
00000360: 249e 0f3e 6939 f93d 4ecc c73d 7984 143e
00000370: 8f9b 7c3d 32ec df3d 4989 b5bb 9a3e 71bb
00000380: c5fb bf3d fc96 493d f16b b43d 2f52 6e3c
00000390: 794e 5cbd 4c2e ca3d d734 0b3e 3e1c b43d
000003a0: c096 273c 59ce c03c 8da1 b03d b05f 0a3e
000003b0: aad5 843d 277c 40bd 59b6 68bc 4162 2bbd
000003c0: 9ddd 143e 8a7d d7bd 973d aabd b45d 80bc
000003d0: 7b80 8bbd 121c 8bbd 7513 01bc fd6d 6abd
000003e0: de16 8b3d f419 063e 9491 18bd dd8f 8bbd
000003f0: 9734 6abd 2929 7bbc f1ab 463d 0d58 36be
0.049066618 -0.014552289 0.18673913 0.06639661 0.057899423 0.1083619 0.069271095 0.061071787
-0.08451438 0.13500836 0.0108332485 0.1930858 0.05638749 0.111346185 -0.00060436863 -0.020879967
0.10936117 -0.011112534 0.096528046 0.10667079 -0.017559374 0.06430405 -0.009894102 0.10566025
0.07068222 -0.060840763 0.011688016 -0.0015716343 0.11498349 -0.05926588 0.16480891 -0.03227383
0.01696641 -0.009845107 0.108074255 -0.008370889 -0.0845778 0.0594617 -0.034356736 0.002416337
0.036483783 0.0036621038 -0.12949462 -0.07023428 0.006335721 -0.15331486 -0.17590854 0.020257728
-0.02132502 -0.058332358 -0.1770148 -0.021570813 -0.08850434 0.07490676 -0.11723936 -0.03258505
0.03824485 0.04215356 -0.0838601 -0.11069441 1.3438941e-05 -0.13048026 -0.0051668435 0.062496
-0.011597275 -0.12392318 0.08238523 -0.099963985 -0.10707626 -0.10021112 -0.08615762 0.025819069
-0.19944522 -0.046892773 -0.15708758 -0.04616648 -0.11860886 0.04015758 -0.18995585 -0.16421328
-0.00149815 -0.13428247 0.009458303 -0.15186879 -0.10860482 -0.12201488 0.024985371 -0.04883201
-0.10110991 -0.18135236 -0.093906 0.02535137 -0.008345942 -0.22250737 -0.063115835 -0.030184504
-0.0955263 -0.058203932 -0.06013278 -0.08866968 -0.13026248 0.0031557211 -0.115559936 -0.018895403
-0.012496205 -0.029588688 -0.15285191 -0.15442033 0.016962 -0.058227465 -0.07554082 -0.15946604
-0.11396013 -0.054707088 -0.03140614 -0.13330312 -0.1601263 0.016164664 -0.120733134 -0.14868806
-0.13965662 0.058820087 -0.19640444 0.07838255 -0.12806967 -0.07684503 0.051526707 -0.040355116
0.00055425667 -0.09988375 -0.1598411 -0.00016137621 -0.097043045 0.027087312 -0.11908579 -0.15166327
-0.18575099 -0.057955224 0.026164314 -0.1626289 0.02109443 -0.034171026 -0.02136694 -0.100574836
-0.15998524 -0.034200676 -0.04028659 -0.111975506 0.08047707 -0.030468602 0.06927431 -0.057106677
-0.015489091 -0.02238712 0.04960077 -0.011907061 0.07399708 0.005169833 -0.025174813 -0.10859622
0.016961278 -0.051065862 -0.033156987 -0.11895594 -0.077012464 -0.0841723 -0.11310021 0.024589987
0.027808258 -0.034382533 -0.028926859 -0.04407431 -0.12571655 0.01419611 -0.065331765 -0.08839155
-0.039027337 0.038593855 -0.023339799 0.06536873 0.0047715562 0.031780213 -0.01621294 0.15936095
0.008371421 0.12678626 0.0755509 0.109589964 -0.042214748 -0.011625816 0.0141484905 0.12694287
0.11201403 0.12404844 0.14668514 0.11381377 -0.0592931 -0.020349536 0.054077942 0.03496908
0.01955555 -0.025103865 0.030519152 -0.088427804 0.12670536 -0.06602089 -0.06610613 -0.017623782
0.09970419 0.05744626 -0.033123843 -0.007729772 0.026685368 0.0054553463 0.109117344 0.11945141
0.1402517 0.12169153 0.09755765 0.1450366 0.06167179 0.109337226 -0.0055400473 -0.0036810995
0.09374193 0.049216256 0.08809651 0.014545961 -0.053785775 0.09872112 0.13594376 0.08794449
0.010228813 0.023535894 0.08624563 0.13513064 0.06486066 -0.0469934 -0.014203631 -0.04184175
0.14537664 -0.105219916 -0.083125286 -0.015669681 -0.06811615 -0.06792463 -0.007878174 -0.0572338
0.06791471 0.13095838 -0.03724821 -0.06814549 -0.05717906 -0.015329638 0.04850382 -0.17807026

bias f4 [20]
00000000: c18e 813d f670 f23d 725f a93d 9d86 2bbe
00000010: bec6 bd3d 24c4 10bc 2e0d bbbd 49a3 c53d
00000020: 23d8 a7bc af38 afbd 1962 9f3d f6fb 9cbb
00000030: 5bef 133d dd4d f4bd 0768 88bd 7ea0 433d
00000040: 7f7f 053e 0620 1abe 0322 c43d dba3 90bd
0.06326056 0.11837952 0.08270158 -0.1675057 0.09266423 -0.008835826 -0.09133373 0.09650285
-0.020488804 -0.085557334 0.077823825 -0.0047907783 0.03611694 -0.11928914 -0.06660467 0.04776048
0.13036917 -0.15051278 0.095768 -0.07062503

weight f4 [20]
00000000: 4c06 7c3f 01f4 793f 9fc0 833f 78bc 863f
00000010: e116 873f 5540 863f 9ddb 733f 5eb6 873f
00000020: b738 713f e465 823f a5bb 7c3f 461f 853f
00000030: 2beb 713f 7b4b 7b3f dee4 7a3f f170 783f
00000040: 010d 793f 42c1 843f fb9a 833f 86ce 7e3f
0.9844711 0.97637945 1.0293158 1.0526266 1.0553857 1.0488383 0.9525698 1.0602529
0.94227165 1.0187345 0.9872382 1.0400169 0.9449946 0.9816205 0.98005474 0.97047335
0.9728547 1.0371478 1.0281671 0.9953388

bias f4 [20]
00000000: d358 6bbb acf1 a3ba 63a3 823a d7cd 8dbc
00000010: e081 a6bc 7a1b 103d 6415 07bd 0e2d 023d
00000020: ebfe 13bd d0b1 ebbb e853 973c 2847 673d
00000030: 9259 8fbb 833d 2dbc 6669 a43c 4ff4 a63c
00000040: 18c3 22ba 8085 493d 4ef1 ed3c fe67 b43c
-0.0035911098 -0.0012507937 0.0009966906 -0.017310066 -0.020325601 0.035182454 -0.032979384 0.03178125
-0.03613178 -0.0071928278 0.018472627 0.056464344 -0.0043746913 -0.010573748 0.02006979 0.020380167
-0.0006208881 0.04919958 0.029045727 0.022022244

running_mean f4 [20]
00000000: bc7f 983f 03e2 873f 977b 3d3f 6a51 663f
00000010: 1e09 273f fae6 903f 673d 293f e97d 943f
00000020: 55d3 9a3f abc5 803f 6a0e 8b3f 73d9 613f
00000030: 831c 633f 0346 823f ad1e 863f b45e 153f
00000040: 064a c93f dc93 113f 8f55 823f 81fc 043f
1.1913981 1.0615848 0.7401671 0.8996798 0.65248287 1.1320488 0.6610932 1.1600925
1.2095743 1.0060323 1.0863774 0.88222426 0.8871538 1.0177616 1.0478112 0.5834763
1.5725715 0.5686624 1.018236 0.5194779

running_var f4 [20]
00000000: bc83 f03f 1594 0440 db2f fa3f 9944 843f
00000010: 3bbc 373f 2c57 e73f a8a6 683f 20e5 c13f
00000020: 50f3 a43f ac4b d53f 925d eb3f 8ad9 843f
00000030: ee21 bb3f 7f76 0740 bfec ec3f 5cc1 a43f
00000040: 73c0 7340 0d68 1340 9b15 b540 257b e53e
1.8790202 2.0715382 1.9545854 1.0333434 0.7177159 1.8073478 0.908793 1.5148048
1.2886753 1.6663718 1.838793 1.0378888 1.461973 2.1166074 1.8509749 1.2871509
3.8086212 2.3032258 5.6588874 0.44820514

weight f4 [10, 20, 1, 1]
00000000: 24d3 8a3e 9766 5dbe 4a5f 073e aaa6 e63d
00000010: f9de b23d 28dc 663b 7805 45be 4e12 d83d
00000020: 1fc8 8d3d 5fcf 973e e3a8 2cbe a5c5 26be
00000030: 60c5 4ebe 602b 13bd b5b9 60bd 1d9b 4a3e
00000040: 5834 3fbe 000c 6abc 949b 003e f375 833d
00000050: 4e93 02be 5196 dcbd 5cb9 2cbe ac2f 743d
00000060: fe54 433e 1164 9c3e dfde 7ebd 12e2 3a3e
00000070: 4f8f b7bd a5a5 033e 12b5 23be 9181 6a3e
00000080: 5c29 1c3d 0f79 22be 6562 73be 4a47 1c3e
00000090: 95bf 53bb b277 263e bd00 5fbe e212 9ebd
000000a0: a4fc 36bc 511d 6a3e c2b0 f83d 8eaa 57be
000000b0: 64b3 0c3d 766b 8c3d 23d2 713d b7e1 53be
000000c0: c95a 893e c2fa 203d 871d f83d d338 ca3c
000000d0: 271b 8c3e a66b 6c3e 36c3 143d f154 53bd
000000e0: 81cd 06bd c264 9fbe 62ec c2bd 0c17 843d
000000f0: 7d0d 673e f837 e7bd 7a70 95be 81d2 4a3d
00000100: 7f2e b5bc 011e 813e cc1f 5f3e 2439 1f3e
00000110: b731 dabb 8924 033e 3c10 61be 41bf 883e
00000120: 479a d03d de90 3ebc 62c4 f53d 7620 a13c
00000130: 0066 013e 7379 273d ba69 c9bd 06ef 813b
00000140: 0baa 293d 61be 003e ba80 45be 3649 0abe
00000150: 7a44 babe c7c1 28be 7608 8f3d c1dc 8cbe
00000160: b3e2 cc3e f2a9 69be b77b 453e b5c2 65be
00000170: 66ff 053e 2690 133e 56f1 573e 1779 43be
00000180: e21b d73d 070e b2be c648 debe 2940 f0bd
00000190: 47cd 07be fabf 023e 2b7b 67be e630 423c
000001a0: 8109 afbe 7e1e 66be d344 713e b582 f53c
000001b0: 50f3 f43d c444 96bd 694c 893d b6b4 66be
000001c0: 0b83 c73d 6ffe 6d3e b018 3e3e f1ce 1cbe
000001d0: 800a 113e 7b76 65be da7d 83be 67cc 35be
000001e0: b67d 25be 1c6c 503e e222 283e bd97 32be
000001f0: 379d 06bd d936 c5bd 861c e63d db5b 7d3a
00000200: 686b 153e 4255 4bbe 1fc2 3f3e f87d ad3d
00000210: 219e 423e a08d 4a3c 82d3 6a3e 7474 673d
00000220: f231 30be 9bdc cfbd 9f34 e3bd 9bfa 79bd
00000230: 6945 dbbc ae92 223e 6df7 a6bd bd1d c53e
00000240: e2c1 2f3e 00ee e83c ea94 3f3e e05b ff3d
00000250: f536 aabd c642 a93d e226 543d 00b2 27be
00000260: 8be5 24be 56f8 fb3c f2b3 52be e14f 9cbe
00000270: 0b2f 9c3e e6a6 5ebe 9247 613d b277 133e
00000280: 9b97 bfbd 8b43 06be 49b4 c43e 410b 6ebe
00000290: fadb c33e ba8e 69be be6e 2d3d 3261 c5be
000002a0: f51d 2cbd 199c cf3d 8104 a83d 298a 8cbe
000002b0: 4f86 d93c eb79 3dbe 5126 44bb d7d8 7b3e
000002c0: 6d4a 6d3e 8743 023e 5bbc 2e3e 0a82 46be
000002d0: 5867 473e c058 223e bde8 33bd 68fd 6b3e
000002e0: bd96 d2bd c2c8 103e adc8 683d 72fd 943d
000002f0: 22ad 503d 191d 293e 2beb 48be f658 603e
00000300: ed27 99bc c58f 47bd feb8 6ebe e1c8 153e
00000310: d580 8f3e 164d 87bd 568d 37be 5cc2 233e
0.27114213 -0.21621166 0.13219944 0.112622574 0.08733935 0.0035226438 -0.19240367 0.10550366
0.06922936 0.296504 -0.168613 -0.16286333 -0.2019248 -0.035930037 -0.054864604 0.19785734
-0.18672311 -0.014285088 0.12559348 0.064189814 -0.12751505 -0.10770858 -0.16867584 0.059615776
0.1907539 0.30545095 -0.062224265 0.18250301 -0.08962881 0.12856157 -0.15987042 0.22900988
0.03812538 -0.15866493 -0.23768003 0.1526157 -0.0032310237 0.16256598 -0.21777625 -0.07718445
-0.011168633 0.22862746 0.12143089 -0.21061155 0.034350768 0.06856434 0.059038293 -0.20691572
0.26827076 0.03930164 0.12115007 0.024685299 0.27364466 0.2308794 0.03631898 -0.05159468
-0.032910828 -0.3113156 -0.09517743 0.06449708 0.22563739 -0.11289972 -0.29187375 0.04951716
-0.022116898 0.25218204 0.21789473 0.15549141 -0.0066587585 0.12806906 -0.21978849 0.26708415
0.10185676 -0.011631219 0.12000348 0.019668799 0.12636566 0.040887307 -0.09834619 0.0039652614
0.04142193 0.12572624 -0.19287387 -0.1350449 -0.36380368 -0.1648017 0.06984036 -0.27512172
0.40016708 -0.22818735 0.19285475 -0.22437556 0.13085708 0.14410457 0.21088156 -0.19089161
0.10503365 -0.34776327 -0.43414897 -0.117309876 -0.13261901 0.12768546 -0.22605579 0.011852479
-0.34186938 -0.2247257 0.2356141 0.029969553 0.11960471 -0.07337335 0.06704027 -0.22529873
0.09741791 0.2324159 0.18564105 -0.15313317 0.14164162 -0.22408478 -0.25681955 -0.17753755
-0.16161236 0.2035374 0.16419557 -0.17440696 -0.032864776 -0.09629602 0.11235909 0.00096648716
0.14591753 -0.19856742 0.18726395 0.08471292 0.19005634 0.012362868 0.22932246 0.056507543
-0.17206553 -0.10149499 -0.11094021 -0.06103001 -0.026766496 0.15876266 -0.081526615 0.3849925
0.17163804 0.0284338 0.1870915 0.12468696 -0.083112635 0.08264689 0.051794894 -0.16376495
-0.16103189 0.030758064 -0.20576456 -0.30529693 0.3050464 -0.21743354 0.054999895 0.14401129
-0.09355088 -0.13111703 0.38418797 -0.2324648 0.38253766 -0.22808352 0.04234194 -0.38550717
-0.042020757 0.10137195 0.08203984 -0.27449158 0.026553301 -0.1850354 -0.0029930065 0.24594437
0.23172922 0.12721072 0.1706404 -0.19385543 0.19473016 0.15854168 -0.04392313 0.23045886
-0.10282657 0.14139083 0.056832004 0.07274903 0.050946362 0.16515006 -0.1962096 0.21908936
-0.018695796 -0.048721094 -0.23312756 0.1462741 0.2802798 -0.066065 -0.17925009 0.15992111

bias f4 [10]
00000000: 25d9 4cbc 13de 0f3e 9467 a83d 2b44 63bc
00000010: 411b f0bd 79e9 a6bb 38cb 45bd f73a 793d
00000020: aa73 05be 0365 16be
-0.012502943 0.14049558 0.08222881 -0.013871233 -0.11723948 -0.00509375 -0.048289508 0.06084725
-0.13032404 -0.1468697

weight f4 [10]
00000000: 4ee7 4a3f b891 813f e1cf 6e3f 004b 953f
00000010: e0e7 683f 20ea 803f 8929 703f 25aa 643f
00000020: 78c8 8c3f feda 9d3f
0.7925919 1.0122595 0.9328595 1.1663513 0.90978813 1.0071449 0.9381338 0.8932212
1.0998678 1.2332456

bias f4 [10]
00000000: 7814 a13d 564b e33c 37c3 583d a582 dabc
00000010: 4042 0dbe ffb0 f6bd d2b2 943b 6a9c a6bd
00000020: b999 483d d040 f3bc
0.07865232 0.027745884 0.052920546 -0.026673624 -0.13794804 -0.12045478 0.0045379186 -0.08135302
0.048974726 -0.029693991

running_mean f4 [10]
00000000: 2a47 293f 4e3d 4e3f 9c6d 263f e15f 0e3f
00000010: 6d31 7a3f bffe 5f3f 4c59 233f 4d0b d13e
00000020: 1312 2d3f f0d5 003f
0.6612421 0.80562294 0.65011 0.5561505 0.9773167 0.87498087 0.6380813 0.40828934
0.67605704 0.5032644

running_var f4 [10]
00000000: 65cf 173f 1365 773f 2404 6f3f 07b1 193f
00000010: 10ef ef3f 0e4c b93f 7816 3c3f 0bce a33e
00000020: 6523 c73f e59c 083f
0.59300834 0.966386 0.93365693 0.6003575 1.8744831 1.4476335 0.73471785 0.31993136
1.5557677 0.533644

weight f4 [20, 10, 3, 3]
00000000: 7786 db3d 31ce 703d 1917 ae3d 0ffa 1bbd
00000010: f2ec 63bd 34d7 f7bc b4a3 73bd d7ec 4abd
00000020: e25b c43d 3f1f 9f3d 0d64 a93d 04b5 b03c
00000030: 08be 4ebd 75ed 35bb a7d2 8a3d acf7 6d3d
00000040: 7a51 de3d a687 58bd ee0b 113e 7436 52bd
00000050: 134c b3bd 991a 043e 2368 873d bcb0 eabb
00000060: 6634 89bc 1a74 ba3d 2560 ce3d 4223 0abd
00000070: 82e2 ed3d 8f91 373d feb1 8a3d af4c d83d
00000080: 625b 703d 7c74 083e 8dd1 013e f87b 173e
00000090: d929 a3bc 1388 93bd 8a15 ab3c 5038 e83c
000000a0: 6f22 923b a801 0bbd 93da 79bd aa2c d43c
000000b0: f5c3 dd3a 0c7b a63c 1245 9cbd 60c8 5b3d
000000c0: f08e 0dbd 0d78 47bc 40ef 403d db70 e23c
000000d0: 1d57 193d 1f0f b9bd bc81 bf3d f4e0 ab3d
000000e0: e86c 543c e658 0ebd 1915 3cbd 78e8 41bd
000000f0: 41dc 3fbd c16b c9bd be2d 63bd 224c 24be
00000100: 51df d0bd 74bb c6bb a567 e4bd 7ada 0a3d
00000110: 8ab5 f43d 4d30 3abd 6a87 84bd 76f4 7e3d
00000120: a405 8cbd cba1 61bd c4b8 273d 5514 18bd
00000130: c9b9 19be cba1 a93d 5e85 aabd b65d c2bd
00000140: 6603 703d 08c4 e2bc 9451 703d 078f 2dbd
00000150: b5d9 40bc 22da 9fbc 7b53 f03d ef39 6b3d
00000160: 0eec d33d 6672 a53d 156e c2bd 4567 a93d
00000170: 3f4c a03d e186 cabd a66e ccbd a354 8e3d
00000180: 08cb 8fbd 2296 9d3d 8ab7 e6bd 2be2 053e
00000190: 3343 2c3e be4c 8d3d 0aad 393e 0d32 f73d
000001a0: 7f78 e13d 5864 653d e942 d83c a28c 8abb
000001b0: 0f50 72bd c9d6 7bbd 2e8f 203d 4602 803b
000001c0: 2ed7 843c 0077 77bd c5da b1bd 2291 15bd
000001d0: 6c7c 593d 7d75 fe3d d166 3b3e 2e8b 193e
000001e0: 3224 b63d 34db 343e 5e92 bc3d d7de 183c
000001f0: c4d2 353e b9fc 5c3d 5b37 07bd 8061 26be
00000200: 127e bc3c d333 aa3c 4739 60bd 5d24 85bd
00000210: bdcf 483b 2d48 f0bd 8614 98bc 1c87 bebd
00000220: 965d d9bd 1d24 b9bd 6a33 debd 0c9a 203d
00000230: 2595 a1bd 53d1 92bd bb51 24bd eb2d 973d
00000240: 4b8a bbbd af3f 06be e8b4 033d e1fe 413d
00000250: 6f9c fbbd f96c 3f3d 8717 55bd c932 c23c
00000260: b9b0 dbbd fa5c a33a c80c ce3d ba6c cbba
00000270: 8a46 d73c 3855 48bd b6fc 853d 9892 ce3c
00000280: 05c3 df3c d19d bc3d eb4d ad3d 381c 43bc
00000290: 88b2 ffbc ce77 e23d 6375 58bd 6b07 c9bc
000002a0: ff34 fc3c 84d7 d23c d6ca 1cbd 18ce 5e3c
000002b0: d115 9abd 7e04 e83d 90be 013e 75b7 93bc
000002c0: 5187 abbd 9e09 a73d 5fda cf3b d42d d53d
000002d0: 18c2 05be 8a75 61bd d13b 273d f696 f2bd
000002e0: 1df3 5dbb 2893 5bbd b945 f8bd 0040 22be
000002f0: 68ac bfbd 11df febd 71d3 abbc 4e8a a3bd
00000300: 48d9 9cbd 326a ebbd bf03 5fbe 2d0b c4bb
00000310: 27c4 debd 764a 5fbd 5559 913d 6858 423d
00000320: 584e f93b 8f06 06bd 4efd 6a3d eb7c a63d
00000330: c3a8 ba3c 38e8 c8bd e76a f83d 7188 4fbd
00000340: d16f 0ebd 2417 9dbd 0660 1fbe edc4 58bc
00000350: 3ee2 1bbe 3cac a3bd ac6c 09bd 5bf6 a8bd
00000360: a910 1f3e 4137 203e 4671 f13c 1be9 623d
00000370: 17b2 e73d 80db 9bbd 2577 933e bccf db3c
00000380: d8e6 953d 3805 073e e1f3 653d 2110 533e
00000390: 9649 b53d fd20 b43c 3cd0 263e 8719 bebd
000003a0: 8ec0 c33d 3466 473e 08dc ea3d 9b56 ddbc
000003b0: d18c 743d 44bc f23b f569 b53c b393 3d3d
000003c0: aa58 7ebc 8de4 4ebd 4e84 963d 511c 84be
000003d0: 541e 47bd 1146 d4bd 6455 61bb afc1 9b3c
000003e0: b71c d3bc 7c7c ac3d ccd8 ebbd 9003 1ebd
000003f0: 7d63 06be 36ed 7dbe 3e72 27be 17bd 47bd
0.107190065 0.05879039 0.08500499 -0.03808027 -0.05564589 -0.030253984 -0.05948229 -0.049542274
0.09587838 0.077696316 0.08271036 0.02157069 -0.050474197 -0.0027759944 0.0677846 0.058097526
0.10855384 -0.05286374 0.14164707 -0.05132146 -0.087547444 0.12900771 0.066116594 -0.0071621817
-0.016748618 0.09104176 0.10076932 -0.03372503 0.116154686 0.04481655 0.067722306 0.10561501
0.0586809 0.13325685 0.12677594 0.14793384 -0.019917415 -0.072036885 0.020884294 0.028347164
0.004459671 -0.033937126 -0.060999464 0.025900204 0.0016919362 0.020322345 -0.076303616 0.05365789
-0.034560144 -0.012174618 0.047103167 0.027641704 0.037436593 -0.09036087 0.09350917 0.08392516
0.012965418 -0.03475275 -0.045918558 -0.04734084 -0.04684091 -0.098350056 -0.055463545 -0.16044667
-0.10198844 -0.0060648266 -0.11152581 0.03389976 0.11948688 -0.04545622 -0.06471141 0.062244855
-0.06837013 -0.05508594 0.04094769 -0.037128765 -0.15012278 0.08282813 -0.08326219 -0.0949053
0.05859699 -0.027681366 0.05867155 -0.04237273 -0.011770655 -0.019513194 0.11734673 0.057428297
0.10347758 0.080784604 -0.09493653 0.0827165 0.07827043 -0.09889007 -0.09982042 0.06949737
-0.07021147 0.07694651 -0.11265476 0.13074557 0.1682251 0.06899403 0.18132415 0.12070093
0.11009311 0.0560039 0.026399093 -0.0042281905 -0.05915838 -0.061484132 0.039199047 0.003906521
0.016215887 -0.06041622 -0.08684305 -0.036515363 0.053097174 0.12424753 0.1830094 0.14994499
0.088936225 0.17661744 0.09207605 0.009330473 0.17756182 0.053951953 -0.033011775 -0.16248131
0.023009334 0.020776665 -0.054742124 -0.06501076 0.00306414 -0.117325164 -0.018564474 -0.09303114
-0.10613553 -0.09040091 -0.1084965 0.03920941 -0.07889775 -0.07168832 -0.040117007 0.07381805
-0.09157237 -0.13110231 0.032154948 0.047362212 -0.12285697 0.046734784 -0.05202439 0.023705857
-0.107270665 0.0012463622 0.100610316 -0.0015520074 0.026278753 -0.048909396 0.065423414 0.025216386
0.027314672 0.092097886 0.08462127 -0.011908583 -0.03121306 0.11058007 -0.052846324 -0.02453967
0.03078699 0.025737531 -0.038279377 0.013598941 -0.075236924 0.11328982 0.1267035 -0.018031815
-0.08375419 0.08156131 0.0063431705 0.10409132 -0.13062322 -0.055043735 0.04082853 -0.118452
-0.003386683 -0.053607136 -0.121226735 -0.15844727 -0.09359056 -0.1244489 -0.020974847 -0.07985364
-0.076586306 -0.114948645 -0.21778773 -0.0059827776 -0.10877257 -0.05451437 0.07097117 0.047447592
0.0076082163 -0.0327211 0.057370476 0.08129295 0.02278555 -0.09809917 0.12129765 -0.05066723
-0.034774605 -0.07670429 -0.15563974 -0.0132305445 -0.15223023 -0.079918355 -0.033550903 -0.082501136
0.15533699 0.15646078 0.029472958 0.055398088 0.11313265 -0.07610226 0.28801838 0.026832454
0.073194206 0.13185585 0.056140784 0.20611621 0.08851926 0.021988386 0.16290373 -0.09282213
0.09558211 0.19472581 0.11467749 -0.027018836 0.059704605 0.007407697 0.02214525 0.046283435
-0.015524069 -0.05051093 0.07349454 -0.25802854 -0.048612908 -0.103649266 -0.0034383172 0.019013254
-0.025770528 0.08422181 -0.1151596 -0.038577616 -0.1312389 -0.2479752 -0.16352174 -0.048764315

bias f4 [20]
00000000: 0927 ebbd 1da5 9dbd 40ed 40bd 1b08 a6bd
00000010: b068 86bc e909 8fbc 7ebe 033d c438 1dbe
00000020: b3a2 a5bd c7b6 d3bc 82c8 b1bd 8a35 f039
00000030: f82e 913d 7c60 003e fdee 1fbd 43d7 26bd
00000040: 2116 a33a 3a69 2bbc 0828 763c aaff 90bd
-0.11482055 -0.076975085 -0.04710126 -0.08107015 -0.01640734 -0.01746078 0.03216409 -0.15353686
-0.08087673 -0.025843991 -0.08680822 0.00045816257 0.07089037 0.12536806 -0.039046276 -0.040732633
0.0012442508 -0.0104621 0.015024193 -0.07080014

weight f4 [20]
00000000: 60f9 803f 1a3b 823f 7343 873f 36c2 713f
00000010: 7f54 823f 55d5 783f a92d 813f ebc8 813f
00000020: 94a5 783f 3f9b 8b3f afe5 8c3f 6ff2 8b3f
00000030: e167 813f 9f11 783f 9a6e 753f a954 7e3f
00000040: 3fb2 633f 3fb2 6c3f 1536 7e3f c4f4 7a3f
1.0076103 1.0174286 1.0567459 0.9443697 1.0182036 0.9720052 1.0092059 1.013944
0.9712765 1.0906752 1.1007594 1.093336 1.0109826 0.9690189 0.9587189 0.9934793
0.88943857 0.9245948 0.9930127 0.9802973

bias f4 [20]
00000000: 7c9e 43bc b0ac 2a3d 705e b63c 829d 2e3c
00000010: 56a3 5dbd 2572 023d d544 fb3c 2979 0ebd
00000020: af78 203c 39e1 243d 9a34 253d 67ec 5ebc
00000030: d35d 95bc 421c 9a3c 0050 10bd b8fb 67bd
00000040: ea58 a4bc ffe2 a73b 77c4 f3bb d462 eabc
-0.011939641 0.041668594 0.022261828 0.01065767 -0.054110847 0.031847138 0.03067247 -0.034783516
0.009794398 0.04025385 0.040333368 -0.013606167 -0.018233215 0.018812303 -0.035232544 -0.056636542
-0.020061929 0.0051234956 -0.007439192 -0.028611578

running_mean f4 [20]
00000000: 6520 493f b38a c63f 68a1 df3f 06ca 683f
00000010: 39c6 bf3f 6e96 c33f b70a 3f3f 00a6 503f
00000020: d214 383f d118 f73f 4850 a13f 6566 a53f
00000030: ba58 863f 5f0b 4b40 e59b 493f 0949 ee3f
00000040: 39ae 553f d5a7 423f caf1 bb3f 8bb2 843f
0.78565055 1.5511078 1.7471132 0.90933263 1.4982368 1.5280282 0.74625725 0.81503296
0.7190677 1.9304448 1.2602625 1.2921873 1.0495827 3.172569 0.787535 1.8616039
0.8346897 0.7603734 1.4683163 1.0366987

running_var f4 [20]
00000000: b99a a33f 7867 9f40 d433 9940 9828 c43f
00000010: 2725 5840 7e1d 4e40 0de2 5c3f ccb8 cb3f
00000020: e1fe 743f a34f f240 e0f2 4e40 3c69 1f40
00000030: 820c db3f 9d3a 5541 c9e5 893f 826b a240
00000040: ad3e c73f 1800 b23f e956 7540 941e d03f
1.2781593 4.9813805 4.7875767 1.5324888 3.3772676 3.22055 0.86282426 1.591577
0.95701414 7.5722213 3.233574 2.490798 1.7113192 13.32681 1.077325 5.0756235
1.5566002 1.3906279 3.8334296 1.6259332

weight f4 [32, 20, 1, 1]
00000000: 0b94 073e 7527 7bbe 29a9 653e 8519 50be
00000010: ddfd 57bd 198a 223e 47a9 28bc 7d73 9bbe
00000020: 5d05 80be d6f4 083e 6608 ddba 2e07 c83d
00000030: 14a4 3cbe e2ce 08bd bc45 36be f070 0b3e
00000040: 5f16 d73c 4cee 0fbe ad99 82bd afb8 163e
00000050: f752 e33c 9025 213d 5e07 7e3e 22b4 e5bd
00000060: d325 733e 53f9 3cbc c8ce 70bd ffbc c8bb
00000070: 25c8 fabd 473c 76be aa6d 00be 16d8 803d
00000080: a58f dabd 95cf 8d3e 975f edbd 81ba 10bd
00000090: cd5c 06bd e495 633d b4fb 1bbe de33 483e
000000a0: 0a4f 3c3e f8af 083e 3557 b6bd f44a 54bd
000000b0: 23fb 80bd 41ff 02bd a147 32be 8d09 67be
000000c0: 1c50 d23d ff25 4b3e 6e55 35be d297 4abe
000000d0: 0b6d 4abe 95b4 22be c563 9f3d f5b3 59be
000000e0: ac68 70bd 7359 2bbe 47d3 9abd 9872 58be
000000f0: 164c e5bd 06fb 36be f1a0 6cbd 5093 48bd
00000100: 6a35 cdbd ac89 8cbd 6558 343e 6027 4cbd
00000110: ab55 26be 58f1 84be 6c2b 7ebd 3624 733e
00000120: eae5 15be 1342 423e 6753 aa3d bf9a d33d
00000130: e47b 423e c3da 6abd e0a0 36be ab90 53be
00000140: 7739 863d f87a 2bbe 6155 5bbe ab97 233c
00000150: d26a 80be b8dc 40be bfd0 00bd f65a e5bc
00000160: 42ab 30be b9d5 01bd 6b39 83be 1344 0f3e
00000170: e417 243e 394c 56be 3dc9 bfbd 3a95 2d3e
00000180: e640 32be 621c 21be 404a e43d 3157 5f3e
00000190: 1eeb 41bd 4271 d239 0171 04be 3dbe 4f3e
000001a0: 9075 35be 0f9b 36be 6671 193e a65b 973d
000001b0: b30e 9e3c 3876 973e 61a9 823e f2e4 903d
000001c0: a733 54be 3d3f cdbc 8331 c13d c5bb 233c
000001d0: 6d67 d0bd 0538 19be 1f61 47be c5f9 c63d
000001e0: 316e 1d3e 2c53 eabd 18f4 483e 8011 633d
000001f0: b2cb a5bc 9d73 a13e eeaa 2dbe 3cf9 363c
00000200: 2db3 463d ef03 47bd fa7e 76be 8231 a13d
00000210: ea4b 03be a3b0 8e3c a0fb e3bc 16ef b43c
00000220: 3eb5 fa3d 3484 16bc 85e8 683d 26c8 583e
00000230: f1a8 fdbd 3fb1 53be f6b7 923e ff7d 9cbd
00000240: 4f46 2ebd 09d4 0fbd 001f f1bc 2a81 b8bd
00000250: 6d44 2abe c2a0 19be 39b6 00be 5f91 cfbd
00000260: e363 c1bc c9d4 87be 8e6f 613d deed 9b3e
00000270: 6fe0 3cbd 4d88 aabb 01d2 0b3d 3930 b3bc
00000280: 5bed e93c 25ae 32be 8163 29be 71b3 083e
00000290: 40d3 703e d299 23be ca74 1fbe 9781 d6bc
000002a0: 60b2 9cbd a41c f4bd da03 64be d787 9b3e
000002b0: ae1b e6bc e1bf dabd f7c6 813d c313 e9bb
000002c0: 5e80 6abe f7a9 9e3d afea dabd a00d 5c3e
000002d0: e862 a4bd 2023 35be 56af 16bd 54f8 ac3d
000002e0: 59b3 1f3d 4533 12be 8ad5 8f3d c956 513d
000002f0: bfa9 40be 8a81 163e bc41 093d cb76 463e
00000300: 958d 59bd 604a 673d e617 313e 1c1e 173e
00000310: e521 e5bd fb70 143e 33c9 59be 608c 863e
00000320: eeba 0c3d f706 a2bd 79d0 993d 7a0e 5ebd
00000330: af87 ae3d afbe 413d 056e b3bd 2c11 883e
00000340: 0843 d93d 84c8 9b3d d43d 1ebe 3347 17be
00000350: 87c9 653e d96d 0e3d b274 3dbe f71e 50bd
00000360: 9422 6dbe 70da 6b3e f48c 933c 2b5c 26be
00000370: e9cd 9e3d ac15 63be aeb6 b7bb e782 6abd
00000380: ee36 5bbe 7eb0 fa3d 5564 463d 0a31 07be
00000390: 77bd 743d 6afd 56bd cd10 3a3b c6c3 cd3d
000003a0: 2966 653c 10ff 713e 836a edbd b074 db3d
000003b0: 91f5 4cbe a865 b7bd c50d a1be 9d29 103e
000003c0: c4ef 29be 05d7 3cbe 82d8 893e 71c0 67be
000003d0: 2a31 cabb b25b b5bc 4e7c 65be ec11 09be
000003e0: 479f 20be a74c 91bd e057 a2be 2cd7 dbba
000003f0: 405a 353d 9772 d5bd a37c 6fbd 5e05 373e
0.13240068 -0.2452677 0.2242781 -0.20322235 -0.052732337 0.15872993 -0.010294265 -0.30361548
-0.25004092 0.13374647 -0.0016863465 0.097669944 -0.18421966 -0.033400424 -0.17800039 0.13617301
0.026255785 -0.14055747 -0.063769676 0.14718889 0.027749522 0.039342463 0.24807498 -0.11215998
0.23744898 -0.011534053 -0.058790952 -0.0061260457 -0.12245206 -0.24046431 -0.12541834 0.06291215
-0.10671929 0.27697435 -0.11590498 -0.035334114 -0.032803345 0.05556287 -0.15232736 0.19551036
0.18389526 0.13348377 -0.08903352 -0.051829293 -0.062979005 -0.03198171 -0.17410137 -0.22562237
0.10269186 0.19838713 -0.1770837 -0.19784477 -0.19768159 -0.15889199 0.077827014 -0.21260054
-0.058693573 -0.16733341 -0.07559829 -0.21137464 -0.11196153 -0.17869195 -0.057770673 -0.048968613
-0.100199535 -0.06862196 0.17611845 -0.04984224 -0.16243617 -0.2596538 -0.06205313 0.23744282
-0.14638487 0.18970518 0.08316689 0.1033225 0.18992573 -0.057337534 -0.17834806 -0.20660655
0.06553929 -0.16746128 -0.21419288 0.009984891 -0.25081497 -0.18834198 -0.031449076 -0.027997475
-0.1725283 -0.031697962 -0.25629744 0.13990812 0.16024739 -0.20927514 -0.09364555 0.16951457
-0.1740757 -0.15733483 0.111469746 0.21810605 -0.047343366 0.00040138705 -0.12933733 0.20287414
-0.17720628 -0.17832588 0.14984664 0.073905274 0.019294119 0.2958238 0.2551985 0.07074918
-0.20722829 -0.025054568 0.09433272 0.009993498 -0.10175977 -0.14962776 -0.19470643 0.097156085
0.15374066 -0.11441645 0.19624364 0.05543661 -0.020238731 0.31533518 -0.16959736 0.011167821
0.04851072 -0.048587736 -0.24071875 0.07870771 -0.12821928 0.017418211 -0.027829945 0.022086661
0.122416005 -0.009186793 0.056862373 0.211701 -0.12385739 -0.20673083 0.28655976 -0.07641219
-0.04254752 -0.03511432 -0.029433727 -0.09009011 -0.16627665 -0.1500273 -0.12569512 -0.10135149
-0.0236072 -0.2652953 0.055038027 0.30454916 -0.046112474 -0.0052042366 0.034135822 -0.02187358
0.028555563 -0.17449243 -0.16541864 0.13349701 0.23518085 -0.15976647 -0.15571895 -0.02618484
-0.0765121 -0.11919525 -0.22267094 0.30377075 -0.02808937 -0.10681129 0.06336778 -0.0071129515
-0.2290053 0.07747262 -0.106892936 0.21489573 -0.08026677 -0.1768918 -0.036788307 0.08445802
0.0389894 -0.1427737 0.07023151 0.051108155 -0.18814753 0.14697853 0.033509955 0.19381253
-0.05311354 0.056467414 0.17294273 0.1475758 -0.111881055 0.14496224 -0.21268158 0.26278973
0.034357958 -0.07911485 0.07510466 -0.054213025 0.08521973 0.04730099 -0.08761219 0.265756
0.10608488 0.07606605 -0.15453273 -0.14773254 0.22440158 0.034772728 -0.18501547 -0.05081078
-0.23157722 0.23032546 0.018011548 -0.16246097 0.07754118 -0.22176236 -0.005606494 -0.057253744
-0.21407673 0.122406945 0.048435528 -0.132023 0.059751 -0.05248777 0.0028391362 0.100471064
0.014001408 0.23632455 -0.11592581 0.10715616 -0.20015551 -0.08954936 -0.31455818 0.14078374
-0.1659537 -0.18441398 0.26922995 -0.22632004 -0.0061704116 -0.02213845 -0.224107 -0.13385743
-0.1568576 -0.070946984 -0.31707668 -0.00167725 0.044275522 -0.10422247 -0.058468472 0.17873141

bias f4 [32]
00000000: f01b 343e 18a9 9e3d 7beb 42be 084d 0fbe
00000010: 8343 30bc 41f7 2abe 79ce d3bd db85 bebc
00000020: b36d 7ebe 482c 363e f2be f23d 715e 06be
00000030: f8b4 e2bb a70e 533e 6bbd c4bd 7d75 0cbe
00000040: 94e5 013e fd30 6d3d ebb3 b9bd 88f5 a1bd
00000050: 729e f93d 681a 4abd 306d 2d3e 8bd5 a73d
00000060: 80ab f93d 08ba b83d 096c abbd 706b 363d
00000070: 956e 4ebe fae5 8fbe d21c c1bd 402e 253e
0.17588782 0.07747096 -0.19035141 -0.13994229 -0.010758284 -0.16695882 -0.10342116 -0.023257187
-0.24846534 0.1779033 0.11852826 -0.13121964 -0.006918546 0.20611058 -0.09606441 -0.13716693
0.12685233 0.057908047 -0.0906752 -0.079081595 0.12188424 -0.04934159 0.16936183 0.08195027
0.12190914 0.09019858 -0.083702154 0.044536054 -0.20159371 -0.28105146 -0.09429325 0.16130924

weight f4 [32]
00000000: 5d65 853f 3d22 7a3f f57d 753f ade9 803f
00000010: 1cb6 783f 61c0 803f c2fa 7e3f 249d 783f
00000020: 09f0 723f d3fd 773f 299b 783f 9668 883f
00000030: 96da 843f 6726 733f ef74 853f 4ae4 773f
00000040: dae7 7c3f c4ed 833f 2412 883f 75b8 793f
00000050: da36 833f cb8b 863f 92b2 7a3f 672d 763f
00000060: 0f8e 7b3f 430d 793f a8e3 783f 5f7a 8b3f
00000070: 9381 7c3f d8b0 853f ddb4 813f 3d3c 773f
1.0421559 0.97708493 0.9589532 1.0071312 0.97152877 1.0058709 0.99601376 0.9711478
0.94897515 0.9687168 0.97111756 1.0656917 1.0379207 0.9498047 1.042631 0.96832716
0.9879128 1.0306935 1.0630536 0.97547084 1.0251114 1.0511411 0.97928727 0.9616303
0.9826364 0.9728586 0.97222376 1.089672 0.98635215 1.0444593 1.013332 0.9657629

bias f4 [32]
00000000: 4e25 81bd d2fc 863c 06fc e439 31c9 013d
00000010: 1edc bcbc b170 af3c a8d8 cbbc 8fc8 38bd
00000020: 8c99 883c 4115 8d3c 59ea d63c 81ca 433d
00000030: 70d7 5fbd c595 53bc 06a4 dd3a f3cd cc3b
00000040: 74e2 6c3c 0d9f 37bd 9f5c d2bb 2835 5e3d
00000050: b564 45bd 38cf 993b 51c7 e83b 8fc6 1dbd
00000060: fdf8 213c f56a d53c 9723 393b ae93 a3bd
00000070: f715 b43b 6866 223d 02c0 ef3b 9898 b5bc
-0.063059434 0.016477976 0.0004367532 0.03168601 -0.023054179 0.02141604 -0.024883583 -0.045113143
0.01667478 0.017222049 0.026234793 0.047800545 -0.054648817 -0.012914126 0.0016909845 0.006250137
0.0144582875 -0.044829417 -0.0064197327 0.054249913 -0.048191745 0.004693892 0.0071038385 -0.03851944
0.009886024 0.026051978 0.0028249973 -0.07987152 0.0054957825 0.039648443 0.0073165903 -0.022167489

running_mean f4 [32]
00000000: c2c4 4d3f b38b 213f 34c6 9b3e c2ab ab3e
00000010: b03d 633e f65f c63e 5fe0 e63e 5d42 d13e
00000020: fabd 493e 78d7 723e 030d a33e 7905 6a3e
00000030: e334 233f 3072 2a3f cfff de3e cf4b 303d
00000040: 86a6 bc3e bbc2 353f 79f5 8d3e 3477 283e
00000050: b64d 8f3e 0005 543e 2bad b03e ae9e 0a3f
00000060: 0862 913e fdd5 dd3e c1dd 5f3e 6f96 623f
00000070: 76db 213e 712b 753e 57bd cd3e eeba a13e
0.80378354 0.6310379 0.30424654 0.33529478 0.221915 0.38745087 0.45093057 0.40870944
0.19701377 0.23715007 0.31845865 0.2285365 0.63752574 0.66580486 0.4355454 0.043041047
0.36845797 0.7100026 0.27726343 0.16451722 0.27988976 0.20705032 0.34507117 0.54148376
0.28395104 0.43327323 0.21861936 0.88510793 0.15806374 0.23942353 0.40183517 0.3158793

running_var f4 [32]
00000000: d8f0 213f c40f 0b3f de6f fb3d b1ab ff3d
00000010: be67 d83d 0e29 b83e 8aad b93e c7c4 6f3e
00000020: e04a 143e e0fc ef3d 7618 443e bc76 363e
00000030: 77bd 033f bb10 a83e afba dc3e 5255 5c3c
00000040: 3dd2 9d3e fcec 003f 6fee 363e 225c 9e3d
00000050: c762 aa3d 1d14 f63d 1c2a 653e 59ca f13e
00000060: f449 2e3e 3afd 943e 9b75 f13d 2d10 943f
00000070: 9f84 903d 0085 3f3e 8d60 e03e 8e06 5a3e
0.63258123 0.5432093 0.12277196 0.124839194 0.10566662 0.35968822 0.36265212 0.23414908
0.14481688 0.11718154 0.19149956 0.17818731 0.51460975 0.32825264 0.43111178 0.013448076
0.30824462 0.5036161 0.17864393 0.07732417 0.083196215 0.12015555 0.22379345 0.47224692
0.17020398 0.29099447 0.117900096 1.1567436 0.070565455 0.18703079 0.43823662 0.21291563

weight f4 [10, 32, 3, 3]
00000000: 6041 8f3c 94fc e23c bda4 8d3d 5e07 9e3b
00000010: e648 8bbc 12a9 053d 22e2 953d 9fdf 873d
00000020: 34e8 273d 039e ef3d 8cd9 3fba 5cd3 1a3c
00000030: 6c21 da3d 651e 513d 3be7 543b de3a a33b
00000040: e65c 483c 95c9 b73d f6dc 763d 56aa 22bd
00000050: 6f93 b13c ee37 2a3d f881 8e3d dfa7 62bd
00000060: 5083 373d 256c 973d b84e 713d f063 9dbc
00000070: d363 af3c fd58 ca3c cbbc 94bc b696 8abc
00000080: 70b8 35bd 98e8 203d d236 1e3d 6a8b 95bc
00000090: dffa 293b 3ad6 113d 0f87 56bc ee92 0f3d
000000a0: 1e9c d7bc 1608 413d cc71 193d a356 943c
000000b0: c900 073d 56d2 733b f7c5 133c cd57 393d
000000c0: 960b 89bd 0663 ac3c 4a2a bcbc e984 2dbd
000000d0: 74fe 22bd 9944 f53b 0f6e f53d d170 a83d
000000e0: caae 283e 6e0d a53d 3bc4 193d dd38 093e
000000f0: 1dc9 133d 1814 883d 9c8c c43d d3bb 633c
00000100: b2ad 503d 73f8 8d3c 3434 2f3d 303f eebc
00000110: aff0 063c cd1c 52bd e943 2abd 1f78 0abd
00000120: cb85 81bb 0c2d cebc b459 57b8 16e1 193d
00000130: c0cc 7f3c 920d c03c 1b02 223d 738a ca3c
00000140: fbb6 3a3d fc8b ebbb cc10 563c 0edd 793c
00000150: 8736 3b3b b08b 21bb ed1a 5b3d 7ab9 2a3d
00000160: 4c66 573d 4e5c 933d c9ec a6bd 5c61 d33d
00000170: d43f 183e f0df 883c e571 a53d 195c bf3d
00000180: c6f7 6b3d f347 b73c dd30 083d ff22 27bd
00000190: 7043 033c 6dde f93c 4675 4ebc 22e9 223d
000001a0: 53a4 033d 856b d83c 476f 6b3d 21c4 513c
000001b0: 4f1e 083d 9b14 60bd 7dc3 3dbc ea0a 683a
000001c0: 083d 00bc a593 d53c 1042 19bc ae5c 0fbd
000001d0: c6f1 00bc 426b 76bc 82db bf3a 7147 ce3c
000001e0: b57e 5bbc 3ad3 153d e458 a13d 6d25 9dbb
000001f0: 4df1 90bc 7be1 64bd 64fe 5b3d f3f9 1e3d
00000200: 5e7f cc3d 586b 3abc 1d1a bb3c 74f6 cc3d
00000210: caee d8bc 4e80 0f3d 5e6e b93d 17cd c4bd
00000220: 9344 61bc 1347 19bd bc85 07bd 745b 67bd
00000230: 7973 9fbc c51d 123d e9d5 80bd 9165 dbbc
00000240: 67f9 c1bc 2202 013d 6a04 04bc f758 2bbc
00000250: 6eb5 b6bc 9fe4 a93d cc95 e1bc cf0a 4ebc
00000260: 144a d8bc 9252 4b3d 903d 013c f773 453d
00000270: 693a f33c d5c4 193d 16d5 713d 815c 9d3c
00000280: e067 c63d 13cd 893d 85b1 13bb ebc6 edbc
00000290: 167d d6bb f48e 673d 666f 9fbd cd13 abbd
000002a0: 328d b13c 0390 f63c 7ab7 6abd 1927 5b3d
000002b0: bb3a 14bc cfe2 833d 971c 163d 7223 e83a
000002c0: b95c 60bc dbdb 1c3c f9e4 33bc 9625 bdbb
000002d0: 45ef fcbc 99e5 1d3c fa48 5cbd 0fed 73bc
000002e0: eb3a a3bc 842b f8bd edbf ac3c 6e93 14bd
000002f0: 5472 f7bd cf09 773d 1002 50bd d16a 91bd
00000300: 6f70 43bd 748c ddbc dfb9 26bc 8ede b5bd
00000310: 331d a53c 4307 15bd 41ea 333a 449a e6ba
00000320: 0bd3 6d3d 4b95 2abd 2e8b ffbc 19a2 17bc
00000330: 7f48 f53c bba4 a53c a9c0 c8bb 0256 a03d
00000340: 7234 933d ea90 863c 32b8 3cbc f4d9 793d
00000350: 8ecb afbb 9b5d c7bb a0f6 f73b a3bf be3c
00000360: 2b81 343d 4b49 3d3c 64f8 86bc 8f52 c4bc
00000370: 57e4 2fbd 7ad6 97bd 7430 623d ded7 833c
00000380: 769f 78bd 4bdf 393d 5736 d3bc d4c1 213d
00000390: b0e7 883c 1113 26bc 6d08 f3bc 53ca 673d
000003a0: ac10 c23b 0549 cebc 8a82 f5bc 5005 583d
000003b0: 20d0 233e 0543 7d3c 91ea 1f3d eb01 d83d
000003c0: 7394 c8bb 5f0e 943c ca91 cb3d 0480 093e
000003d0: de50 cc3d e5fc 0f3e c1c2 e73c 8b83 2f3d
000003e0: 4a1e 893d 3197 8e3d 91c6 9b3d 128d ba3a
000003f0: b015 0f3d b081 223c 76ae 933c 6e74 2cbd
0.017487228 0.02770833 0.06916187 0.0048226556 -0.017002534 0.03263194 0.07318522 0.06634449
0.04099293 0.1170006 -0.0007318489 0.009449806 0.10650906 0.051054377 0.0032486457 0.0049813827
0.01222918 0.089739956 0.06026932 -0.039713226 0.021676747 0.041557245 0.06958383 -0.055335876
0.044802964 0.07393674 0.058912963 -0.019212693 0.021409905 0.024700636 -0.01815643 -0.016917568
-0.044365346 0.03928432 0.0386265 -0.018254954 0.0025936884 0.035604693 -0.013093724 0.035052232
-0.02631956 0.047126852 0.03746204 0.018107718 0.032959733 0.0037204227 0.009019366 0.04524975
-0.06691663 0.021043312 -0.022969384 -0.04236308 -0.039793447 0.007484984 0.11983883 0.08224643
0.16472927 0.08059202 0.037540656 0.13400598 0.03608047 0.066444576 0.095971316 0.013899761
0.0509469 0.017330384 0.042774394 -0.029082865 0.008236094 -0.051296998 -0.04156867 -0.033805963
-0.003952717 -0.025167964 -5.1343537e-05 0.037568174 0.015612781 0.02344397 0.03955279 0.02472422
0.04558466 -0.0071883183 0.013065528 0.015250457 0.0028566436 -0.002464991 0.053492475 0.04168079
0.052587792 0.0719534 -0.08150632 0.10321304 0.14868098 0.016708344 0.08078364 0.09343738
0.057609342 0.022373175 0.033249725 -0.04080486 0.008011684 0.030501569 -0.012601202 0.039773114
0.032139134 0.026418457 0.05747917 0.012803108 0.03323203 -0.05470715 -0.011582253 0.0008851724
-0.007827051 0.026071379 -0.009354129 -0.035000496 -0.007870143 -0.015040221 0.0014637562 0.02518055
-0.0133969085 0.036578394 0.07878283 -0.0047957213 -0.017693186 -0.055879097 0.053709403 0.03881259
0.09985231 -0.011378132 0.0228396 0.10007945 -0.026481051 0.03503447 0.09054254 -0.0960943
-0.0137492595 -0.037421297 -0.033086523 -0.0564837 -0.019464241 0.03567292 -0.062908 -0.02678183
-0.023678495 0.031496175 -0.008057693 -0.010458223 -0.02230331 0.08295559 -0.027537249 -0.012575819
-0.02640251 0.049639292 0.007888213 0.048206296 0.029690938 0.03754123 0.059041105 0.019209148
0.09687781 0.06728568 -0.002253623 -0.029025516 -0.006545673 0.056532815 -0.077849194 -0.08353386
0.021673772 0.030097967 -0.057303883 0.053504083 -0.009047206 0.06439745 0.03664836 0.0017710759
-0.013693982 0.009573902 -0.010979884 -0.005772303 -0.030875811 0.00963726 -0.053780533 -0.014888062
-0.019925555 -0.12117675 0.021087611 -0.036273412 -0.12082353 0.06031209 -0.050783217 -0.07100452
-0.047714647 -0.027044512 -0.010176151 -0.088803396 0.020155525 -0.03638388 0.00068632147 -0.0017593582
0.058062594 -0.041646283 -0.031194296 -0.009254956 0.029941795 0.020220151 -0.0061264825 0.07828905
0.071877375 0.016426522 -0.011518525 0.060998872 -0.005364842 -0.0060841567 0.007567242 0.023284739
0.044068497 0.011553119 -0.016475864 -0.023965148 -0.04294237 -0.07413955 0.05522199 0.016094144
-0.06069895 0.045378964 -0.025782747 0.03949149 0.01671204 -0.010136382 -0.029667104 0.056589436
0.0059223976 -0.025181303 -0.029969472 0.05273944 0.15997362 0.015457873 0.03904206 0.10547241
-0.006121212 0.018073259 0.099399164 0.1342774 0.09976362 0.14061315 0.028291108 0.04285006
0.0669523 0.06962431 0.07606233 0.0014232716 0.034932792 0.009918615 0.018027525 -0.042103224

bias f4 [10]
00000000: d791 203d 87cb 96bb 635e d6bb 3bb3 b23a
00000010: a0db 6dbc e52d 54bd 11c8 c7bc fab2 503c
00000020: 74db a0bc 8764 15be
0.039201584 -0.004601899 -0.0065420135 0.0013633737 -0.014517695 -0.05180158 -0.024387391 0.012737984
-0.019635893 -0.1458913

weight f4 [10]
00000000: 6565 723f 7448 763f 4ba1 713f f4fa 813f
00000010: 1208 763f e8a6 5e3f 2e73 803f da34 8a3f
00000020: 9fe2 6b3f 15ba 963f
0.94685966 0.96204305 0.9438674 1.015471 0.96106064 0.8697343 1.003515 1.0797379
0.9214267 1.1775538

bias f4 [10]
00000000: 5ab5 d0bc 9d2c b43c 96e3 873d fe31 b539
00000010: a62f f23b d0d3 9bbd 511e 51bd 7610 4d3d
00000020: 2e16 353c 4cbe 46be
-0.0254771 0.02199393 0.066352054 0.00034560257 0.007390934 -0.076087594 -0.051054303 0.050064526
0.011052651 -0.1940853

running_mean f4 [10]
00000000: 9bce ab3f f168 4940 c0a6 2e40 e147 2f40
00000010: 1e4c 4c3f f197 c13f aaa1 b83f 1ed8 1140
00000020: 7316 bd3f 2c5a ed3f
1.3422426 3.14703 2.7289276 2.7387621 0.79803646 1.5124494 1.4424336 2.2788157
1.4772476 1.8543143

running_var f4 [10]
00000000: cb12 a140 114c 8e41 8600 4841 bc15 9e41
00000010: 1edc fc3f e6e6 ad40 e7ce 8340 1162 6c41
00000020: a589 aa40 4678 b540
5.033544 17.787142 12.500128 19.760612 1.9754674 5.434436 4.1190066 14.773942
5.3293023 5.670932

weight f4 [10, 10, 1, 1]
00000000: 1130 da3e 1db3 b2bd 50d1 27be da4b 4e3e
00000010: 91ef c3bd 073b e63d 4c40 273e 220a 21bd
00000020: d750 d53c 0fcd a33e c5f0 3cbd 5fd2 6a3c
00000030: c683 7cbd 3c9d 51bc 6301 20be d2ff 9f3e
00000040: ff4e b7bd 1e50 95bd 3308 80bd 11b3 be3e
00000050: c9a5 a03c 5468 64be cbe2 ae3e ef86 a4be
00000060: de06 393e 3a4e babc e9e8 56be c409 07bf
00000070: 7098 8a3e d096 bfbd e4de 333b e742 5f3d
00000080: c6ee 27be 1140 75bd 1b13 16bd 0d15 953e
00000090: acee 983e f182 a43e a4d9 3ebd 5a9b d53e
000000a0: 9f1e 0f3e e697 b73e bc2f cb3d 1c1d e43e
000000b0: 253f 90bd c172 8cbe 1933 d0bd 5626 aa3e
000000c0: b6f9 52bd e0ca 9dbd cf1d 71be e569 25bd
000000d0: 033c 2e3e c85f e0bd 50b4 9c3e 4fd0 783d
000000e0: 8440 863e efe8 253c b52d f9bd e890 a23e
000000f0: b75f 313e 6f12 8dbe 53e7 8ebd c6f6 45be
00000100: bf5f 62be 4010 e33d 1b2c 93bd efdc 75bd
00000110: a991 123e e2b6 f13d 0085 b1bc 1c46 ce3e
00000120: 00a8 e8bc 9036 a03e 3db5 3cbe ae38 54be
00000130: 1c9f 6b3e 24c5 cc3e 7712 c03e 4b3a f3bc
00000140: 3493 053e 5497 33bd 476e 873d d097 353e
00000150: 75e4 2b3e 63ae 793d 6476 473e 06e4 8d3d
00000160: a865 52be f885 0d3f 2e2c a2bd 5dd8 97be
00000170: 7282 c63e bf00 70be 6fbb 1ebc 1bd0 b63b
00000180: b02d 94be c218 e13d 7cef d6bd 17d7 8cbe
0.42614797 -0.087255694 -0.1638844 0.20146123 -0.09567178 0.11241727 0.16333121 -0.039316304
0.026039524 0.31992385 -0.046128053 0.014332383 -0.061649106 -0.012793835 -0.15625529 0.31249863
-0.08950614 -0.07290672 -0.06251564 0.37245992 0.019610303 -0.22305423 0.34157404 -0.32134196
0.18069026 -0.02274238 -0.20987286 -0.52749276 0.27069426 -0.09354937 0.0027446086 0.054507162
-0.16399679 -0.05987555 -0.036639314 0.29117623 0.29869592 0.3213115 -0.046594277 0.41720086
0.13976525 0.35858077 0.09921214 0.4455346 -0.07043294 -0.274313 -0.10165996 0.33232373
-0.051507674 -0.07704711 -0.23546527 -0.040384192 0.1701508 -0.10955769 0.30606318 0.060745534
0.26221097 0.0101263365 -0.12166921 0.3175118 0.17321669 -0.27553126 -0.06977715 -0.19332418
-0.22106837 0.11087084 -0.07186147 -0.06002515 0.14313377 0.1180246 -0.021669865 0.40287864
-0.028400421 0.31291628 -0.18428512 -0.20724747 0.23009914 0.39994156 0.37514088 -0.029690882
0.13044435 -0.04384549 0.066128306 0.17733693 0.16786368 0.060957324 0.19478756 0.06928258
-0.20546591 0.55282545 -0.07918583 -0.2965726 0.38771397 -0.23437785 -0.009688242 0.0055790073
-0.28941107 0.1099105 -0.10494897 -0.2750785

bias f4 [10]
00000000: 440e 363d 38e3 92be 659c 2a3e 60ff 90bd
00000010: 259b 103e ae16 1fbe 50e8 02bf a4e8 b83d
00000020: 3864 833d 1ba3 993e
0.0444472 -0.2868898 0.16661222 -0.07079959 0.14121683 -0.15535995 -0.5113573 0.09028748
0.064155996 0.30007252

weight f4 [10]
00000000: 1706 8a3f 9625 753f c767 8b3f 096d 783f
00000010: fd48 793f f057 6e3f 0d57 7f3f 7057 863f
00000020: 13b6 7e3f 3c1a 783f
1.0783108 0.95760477 1.0891045 0.97041374 0.97376996 0.9310293 0.99742204 1.0495434
0.99496573 0.9691503
